hey_broccoli.onnx (onnx, 205430 bytes, 9 tensors)

layer1.weight f4 [32, 1536]
0	0xbc2db662	-0.0106025655
1	0x3cbcc2c1	0.023042085
2	0xbd1405e3	-0.036138427
3	0x3ca6421e	0.020295199
4	0xbbb09294	-0.005388567
5	0x3c3927cc	0.011300992
6	0x3d29af65	0.041427035
7	0xbc17bf6b	-0.009261946
8	0xbc957329	-0.01824339
9	0xbc8768cd	-0.016529465
10	0x3b3b2b65	0.00285598
11	0x3cfd0157	0.030884428
12	0x3c65a495	0.01401629
13	0xbbb1ea2c	-0.005429527
14	0x3c6199f6	0.013769617
15	0xbd49b60c	-0.04924588
16	0xbca3229a	-0.01991396
17	0xbc85f4d1	-0.01635209
18	0x3d270371	0.040774766
19	0x3c9d8ca7	0.019232107
20	0x3cee715a	0.029106785
21	0xbbc46a7d	-0.0059941397
22	0x3c94c126	0.018158507
23	0xbd3ca22e	-0.046053104
24	0xbc3f32bb	-0.01166981
25	0xbb2b80fa	-0.0026169405
26	0x3cd2c1d4	0.02572719
27	0x3b8c1bc2	0.00427577
28	0xbb8e70b1	-0.00434693
29	0xbb3ebcf9	-0.0029104336
30	0xbc1dbfa4	-0.00962821
31	0xbd346c4f	-0.044048604
32	0x3c78dea3	0.0151897995
33	0x3d8f84b9	0.07007737
34	0xbce0191a	-0.02735572
35	0x3cb08759	0.021548914
36	0x3b752154	0.0037403898
37	0xbc980214	-0.018555678
38	0x3b7a53ef	0.0038197
39	0x3cd19bfa	0.02558707
40	0x3bb30abd	0.0054639266
41	0x3bc50430	0.006012462
42	0x3b4fa172	0.0031681922
43	0x3c403a59	0.011732661
44	0x3c0cab27	0.008585728
45	0xbc4f1de8	-0.012641408
46	0x3cd0c9b0	0.025486797
47	0xbce5138c	-0.027963422
48	0xbcc12ec2	-0.023581866
49	0x3c397fe6	0.011321997
50	0xbadfc135	-0.001707113
51	0x3c4051fd	0.0117382975
52	0xbccea6e2	-0.02522606
53	0x3c0e7a11	0.008696095
54	0x3c6e5818	0.01454737
55	0xbc1d5d30	-0.009604737
56	0xbc0581a2	-0.008148583
57	0x3c987ab3	0.018613195
58	0xbc266afe	-0.010157345
59	0x3c409606	0.011754518
60	0x3b979bd0	0.0046267286
61	0xbcc2c131	-0.023773761
62	0x3d4f4bbf	0.050609346
63	0xbb848a0b	-0.0040447763
64	0xbc7d79e9	-0.01547096
65	0xbbfcb451	-0.007711925
66	0x3d11aa85	0.03556301
67	0x3c6b8ee5	0.01437733
68	0x3c2643d6	0.010148009
69	0xbd143d98	-0.036191553
70	0x3ce7bf65	0.028289506
71	0xbc9e4e70	-0.019324511
72	0x3d143f5d	0.03619324
73	0x3cfa109b	0.030525496
74	0x3c02c54f	0.007981612
75	0xbc185e25	-0.00929979
76	0x3d10084e	0.03516417
77	0x3d01ebd9	0.031719062
78	0xbbdbfa3e	-0.006713181
79	0x3b42fd2e	0.0029752958
80	0xbc95db25	-0.018292973
81	0x3c94f63b	0.018183818
82	0xbc905430	-0.017618269
83	0xbc636f63	-0.013881537
84	0xbbdfbef7	-0.0068281847
85	0xbc969e16	-0.018385928
86	0xbd3aa184	-0.04556419
87	0xbd2d4e08	-0.042310745
88	0x3d027685	0.03185131
89	0xbc85229b	-0.016251853
90	0x3d1c2005	0.038116474
91	0x3753204e	1.2584102e-05
92	0x3c54ed9b	0.012996103
93	0x3d0bc0f2	0.034119554
94	0xbcb51323	-0.022103852
95	0xbc9c7f21	-0.019103589
96	0xbca03201	-0.019555094
97	0xbc07495d	-0.008257237
98	0xbc9379b6	-0.018002372
99	0xbd1f0d7e	-0.038831227
100	0x3ba9891a	0.0051738145
101	0xbc8a9b44	-0.01691974
102	0xbc8ddc0d	-0.017316842
103	0x3c43f613	0.011960524
104	0xbd16a247	-0.036775853
105	0xbcabf47f	-0.020990608
106	0x3c7c1933	0.015386867
107	0xbbad05f5	-0.005280251
108	0x3ad56389	0.0016280274
109	0x3c98ea2d	0.018666351
110	0xbca52137	-0.02015744
111	0xbd34da8f	-0.044153746
112	0x3c52f757	0.012876353
113	0xbcde6afd	-0.027150625
114	0x3ce8fa2c	0.028439604
115	0x3c2f6296	0.010704657
116	0xbc148690	-0.009065285
117	0xbc11393f	-0.008863746
118	0x3d22fa44	0.039789453
119	0xbcdd073e	-0.026980992
120	0x3c90268c	0.017596506
121	0x3c60964f	0.013707711
122	0x3c882946	0.016621243
123	0xbcba0820	-0.022708952
124	0xbb4704b5	-0.0030367796
125	0x3c6f9869	0.01462374
126	0x3cafd639	0.021464454
127	0x3c0cc5c2	0.008592071
128	0xbc357036	-0.011074116
129	0x3d1acb2b	0.037791412
130	0x3c626998	0.013819121
131	0x3b4f200e	0.00316048
132	0x3c3c743d	0.011502323
133	0xbce045fe	-0.027377125
134	0xbcd93a20	-0.026516974
135	0xba934d7a	-0.00112383
136	0x3c9da24d	0.01924243
137	0x3d328867	0.043587115
138	0x3c84797f	0.016171215
139	0x3d02b8ff	0.031914707
140	0xba7f55ac	-0.0009740244
141	0xbcaa310d	-0.020775342
142	0xbc93e629	-0.018054085
143	0x3cbdc636	0.023165803
144	0x3c409b32	0.011755751
145	0x3d01c865	0.03168525
146	0x3a229521	0.00062020315
147	0x3c28860b	0.010285865
148	0x3b34fd61	0.0027616846
149	0xbb56d227	-0.003277907
150	0xbc97b4cf	-0.018518833
151	0xba826d68	-0.0009950818
152	0x3c726043	0.014793458
153	0x3c2fac41	0.010722221
154	0xbc26e5bc	-0.010186609
155	0x3c75d1f4	0.01500367
156	0x3c99c449	0.018770354
157	0x3cc89e44	0.02448953
158	0x3d0d7119	0.034531686
159	0xbc993118	-0.018700168
160	0x3c74b74c	0.0149362795
161	0x3c20f0ed	0.009823066
162	0x3cde14eb	0.027109584
163	0xbcd199e2	-0.025586072
164	0x3c3dcf18	0.0115850195
165	0x3c278629	0.010224857
166	0x3d2ed8f8	0.042687386
167	0x3ad96cef	0.0016588251
168	0x3d4f07f0	0.05054468
169	0xbc0ee6cf	-0.008722021
170	0xbbaeab3f	-0.0053304727
171	0xba94cd82	-0.001135275
172	0x3d6b392f	0.05742758
173	0x3cbde429	0.023180084
174	0x3bbf9fa4	0.005847888
175	0x3a6e43ef	0.00090891024
176	0xbb420bca	-0.0029609078
177	0xbc814b6b	-0.015783032
178	0xbc9ef36c	-0.019403182
179	0x39391eca	0.00017654445
180	0xbcace0d5	-0.021103302
181	0xbb86720a	-0.00410295
182	0x3c462920	0.012094766
183	0xbcb9e30e	-0.022691276
184	0x3c897f00	0.016784191
185	0x3c285f69	0.010276654
186	0x3d395381	0.04524565
187	0xba6813f0	-0.00088530686
188	0xbccfa18d	-0.025345588
189	0xbb5ea703	-0.0033974058
190	0xbb5772f1	-0.0032874907
191	0xbcd094f5	-0.025461653
192	0xbc06bc0e	-0.008223547
193	0x3c07d43d	0.008290348
194	0x3c23bfac	0.009994429
195	0xbda98e75	-0.08279125
196	0x3d1298b7	0.03579017
197	0x3ae1168a	0.0017172855
198	0xba76c2c2	-0.00094131764
199	0x3bb97ef7	0.0056608873
200	0xbce6a49e	-0.028154667
201	0xbc93ca4d	-0.0180408
202	0x3b44c450	0.0030024238
203	0xbce665c5	-0.0281247
204	0x3acf5102	0.0015816989
205	0x3cc88c77	0.024481041
206	0xbc7bf0ad	-0.015377206
207	0xbc769c6b	-0.015051941
208	0x3b3ae59b	0.0028518203
209	0x3ba89c3a	0.005145577
210	0x3c8b047f	0.016969917
211	0xbc331790	-0.010930911
212	0xbb63ddc0	-0.0034769624
213	0x3b8f85e7	0.004379976
214	0x3cc3bcf9	0.02389382
215	0x3cbe98c7	0.02326621
216	0x3c58743a	0.013211304
217	0x3c8b5969	0.017010408
218	0xbc552161	-0.013008446
219	0x3c10c505	0.008836036
220	0xbbfe7a61	-0.0077660535
221	0x3d167795	0.036735136
222	0x3cbb329a	0.022851277
223	0x3b476a44	0.003042833
224	0x3ca29b66	0.01984949
225	0x3cb7be63	0.02242965
226	0xbcb6e2bf	-0.022324918
227	0x3d0068f6	0.0313501
228	0x3cd649d8	0.026158258
229	0xbcd1064d	-0.0255157
230	0xbb3c79f8	-0.0028759222
231	0xbca1cd73	-0.019751286
232	0xbc81f4b0	-0.015863746
233	0xbc885e8c	-0.016646646
234	0x3c8bd875	0.017070988
235	0x3ae53495	0.0017486984
236	0xbd13a419	-0.036045168
237	0xbcc2f2c2	-0.023797397
238	0xbb5a7f35	-0.0033339981
239	0x3c84fdf7	0.016234381
240	0x3ae917bf	0.0017783566
241	0x3cb99f1a	0.022658873
242	0x3c7c48c8	0.015398212
243	0x3c087af6	0.008330097
244	0x3b99c7e9	0.0046930206
245	0x3c088dd7	0.0083345985
246	0x3ba02cd9	0.0048881588
247	0x3c5212d9	0.012821876
248	0x3b36a8a5	0.0027871516
249	0xbcc167b2	-0.023609016
250	0xbca29950	-0.019848496
251	0x3c7f1e4b	0.015571187
252	0x3ca62e12	0.02028564
253	0xbcb91e86	-0.022597563
254	0x3bd7629f	0.006573036
255	0xbba31b06	-0.0049775867

layer1.bias f4 [32]
0	0x3c1b4aca	0.00947828
1	0xba928309	-0.0011177968
2	0x3ca4da71	0.020123692
3	0x3c16e9e0	0.009211034
4	0x3ca018ee	0.019543137
5	0xbb50587d	-0.0031791024
6	0xbc9f4419	-0.019441651
7	0x3c91fb30	0.01781997
8	0xbb664ee3	-0.0035142235
9	0xbcbfc7eb	-0.023410758
10	0x3beae5bd	0.0071685
11	0xbc2ef894	-0.010679383
12	0xbcac629e	-0.021043118
13	0xbc59e175	-0.013298382
14	0xbabef95e	-0.0014570167
15	0xbc2c5e6a	-0.010520557
16	0x3b3f1109	0.002915444
17	0x3c8bf634	0.017085172
18	0x3ba6e200	0.0050928593
19	0xbc73808f	-0.014862194
20	0xbaac15ae	-0.001312902
21	0x3a6fbcee	0.0009145279
22	0x3c1026cc	0.008798312
23	0xbc8f16c3	-0.017466908
24	0xbc097707	-0.008390195
25	0xbb3b08c3	-0.0028539158
26	0x3c7bd8b9	0.015371495
27	0xbc9de562	-0.019274417
28	0x3cb9b868	0.02267094
29	0x3cab85a6	0.020937752
30	0xbcaaa744	-0.020831712
31	0x3caeb03e	0.021324273

layernorm1.weight f4 [32]
0	0x3f814224	1.009831
1	0x3f7e8d02	0.9943391
2	0x3f8141ca	1.0098202
3	0x3f7c5986	0.985741
4	0x3f7acec0	0.97971725
5	0x3f7e5636	0.993503
6	0x3f7d9aa7	0.99064106
7	0x3f7cc343	0.98735446
8	0x3f7db7a0	0.99108315
9	0x3f7f340b	0.99688786
10	0x3f7d4b72	0.98943245
11	0x3f7e3bd0	0.99310017
12	0x3f78132e	0.96904266
13	0x3f77e54f	0.9683427
14	0x3f73358b	0.95003575
15	0x3f859bc4	1.0438161
16	0x3f7ce54f	0.987874
17	0x3f818042	1.0117266
18	0x3f75542d	0.9583157
19	0x3f81dd34	1.0145631
20	0x3f7f5ef1	0.99754244
21	0x3f7e98b6	0.9945177
22	0x3f82bcfb	1.0213922
23	0x3f82f6c1	1.0231553
24	0x3f80947b	1.0045313
25	0x3f76a251	0.96341425
26	0x3f7f7253	0.9978382
27	0x3f81fa4f	1.0154513
28	0x3f7ee3ed	0.9956654
29	0x3f822cce	1.0169923
30	0x3f7fa24e	0.9985703
31	0x3f7eae4b	0.994847

layernorm1.bias f4 [32]
0	0x39f26954	0.00046236312
1	0xbc555d07	-0.013022668
2	0x3badaa65	0.0052998536
3	0x3bf8cc70	0.00759273
4	0xbc80e53b	-0.015734306
5	0xbc4d038f	-0.0125130555
6	0xbca7d2d4	-0.020486273
7	0xbc10464a	-0.008805821
8	0xbc14583a	-0.009054238
9	0xbc50a4b1	-0.012734578
10	0x3c19f99f	0.009397893
11	0x3c775e4f	0.0150981685
12	0xbce38638	-0.027773961
13	0x3c2e9894	0.010656495
14	0x3b7e5828	0.003880987
15	0x3c996462	0.018724624
16	0xbcd33420	-0.025781691
17	0x3c0cd5b7	0.008595875
18	0x3c8dc3d9	0.017305302
19	0x3c607b9f	0.013701349
20	0xbc5d346d	-0.013501269
21	0xbca680a1	-0.020325007
22	0x3bf6c245	0.007530483
23	0x3be672b6	0.0070327176
24	0x3c14f4f3	0.009091604
25	0x3c1d968b	0.009618412
26	0xbc484266	-0.012222862
27	0x3c571520	0.013127595
28	0xbc57bc40	-0.013167441
29	0x3c79f0db	0.015255178
30	0xbc303300	-0.010754347
31	0xbc5033dc	-0.012707677

blocks.0.fcn_layer.weight f4 [32, 32]
0	0x3d8bfa82	0.0683489
1	0xbcda2605	-0.026629457
2	0x3dabaddb	0.0838277
3	0xbe0ca515	-0.13734849
4	0xbd0cb720	-0.03435433
5	0x3b566a5b	0.0032717201
6	0xbdc18f17	-0.0945112
7	0x3d82a12a	0.06378396
8	0xbd3652d7	-0.044512596
9	0x3cfe68ac	0.03105577
10	0x3c951ae5	0.0182013
11	0xbcd8215c	-0.026383094
12	0xbd002446	-0.031284593
13	0xbe0ef19e	-0.13959357
14	0xbdc797f6	-0.09745781
15	0xbce8f568	-0.028437331
16	0x3e16c29f	0.1472268
17	0x3e06ca81	0.13163187
18	0x3dd20439	0.10254712
19	0xbe1817e6	-0.14852867
20	0xbdf52a85	-0.119710006
21	0x3e0ff56b	0.14058463
22	0xbe26c2f6	-0.16285309
23	0xbdeec6ad	-0.11658988
24	0xbdf1299b	-0.11775514
25	0xbd0dcb5a	-0.03461776
26	0x3dc904b8	0.09815353
27	0x3db7c840	0.089737415
28	0x3ca349d1	0.01993266
29	0x3d807b62	0.062735334
30	0xbe0987c3	-0.13430695
31	0x3d3b13da	0.04567323
32	0xbcbdba74	-0.023160197
33	0x3da15b48	0.07878739
34	0x3e19709a	0.1498436
35	0xbd1b6fda	-0.037948467
36	0x3e0b602a	0.13610902
37	0x3c70878d	0.014680755
38	0x3d2e6c8b	0.042583983
39	0xbe0b0183	-0.13574795
40	0x3c9a15f7	0.018809302
41	0x3e1d47ee	0.1535947
42	0xbd8ac010	-0.06774914
43	0xbccc4108	-0.024933353
44	0x3de7fc37	0.11327403
45	0x3d957d3a	0.07299276
46	0xbd8de8e9	-0.0692919
47	0x3e1e1b2b	0.15440051
48	0x3d46d107	0.048539188
49	0x3d31d274	0.043413594
50	0xbe050582	-0.12990382
51	0x3d949e2b	0.07256731
52	0xbd8990e6	-0.0671709
53	0xbe324c5d	-0.17411943
54	0xbe0f5a33	-0.13999252
55	0xbdbdf77b	-0.09275719
56	0x3e0fd0ca	0.1404449
57	0xbd8273e3	-0.0636976
58	0xbe26fef7	-0.16308199
59	0x3e135d18	0.14390981
60	0x3d928415	0.07154099
61	0x3e338b38	0.17533576
62	0x3b9d572d	0.004801652
63	0x3d86ed3a	0.06588216
64	0xbd9a50bc	-0.0753493
65	0xbdba9c98	-0.09111899
66	0xbe1fb711	-0.15597178
67	0xbd3162b6	-0.04330703
68	0xbde153ac	-0.11002287
69	0x3d9c89fd	0.07643507
70	0x3d51b699	0.05119953
71	0xbd28a5e0	-0.041173816
72	0xbd7772db	-0.06041227
73	0x3dc9ad6b	0.0984753
74	0x3db60584	0.08887771
75	0xbe0e7b79	-0.13914289
76	0x3d0f4937	0.034981932
77	0x3dc23396	0.094824955
78	0x3db97ca5	0.09056977
79	0xbc6c7a27	-0.01443342
80	0xbd696a45	-0.056986112
81	0x3e04fdab	0.12987392
82	0x3d1bc070	0.03802532
83	0xbd2557e7	-0.040367033
84	0xbdd9c814	-0.10633865
85	0xbe2c0a96	-0.16800913
86	0xbcfcd669	-0.030863957
87	0xbd201109	-0.039078746
88	0x3e0510dd	0.12994714
89	0x3da974bc	0.082742184
90	0xbca4d90c	-0.020123027
91	0x3e320490	0.17384553
92	0x3d872626	0.06599073
93	0x3e080c71	0.13285996
94	0xbe2593cb	-0.1616966
95	0x3e3232c4	0.17402178
96	0x3d66d491	0.056355063
97	0x3b53c98d	0.0032316179
98	0xbdf53861	-0.11973644
99	0x3d82904e	0.0637518
100	0xbc674508	-0.014115579
101	0x3e1316b5	0.14364131
102	0x3dcea2ce	0.10089646
103	0xbc9e2376	-0.019304018
104	0xbdfaf36c	-0.1225346
105	0x3e1eb736	0.15499577
106	0xbe0c7174	-0.13715154
107	0x3d3cabfc	0.046062455
108	0x3e184bc0	0.14872646
109	0xbe0e55af	-0.13899873
110	0xbdeba315	-0.11505715
111	0xbd1e4c73	-0.038647126
112	0x3e44335c	0.19160217
113	0xbd33a03b	-0.04385398
114	0x3e28705b	0.1644911
115	0x3cf5b2fd	0.029992575
116	0xbde53252	-0.111912385
117	0x3e05b461	0.1305709
118	0xbdcfe6f0	-0.1015147
119	0x3c981f82	0.018569712
120	0xbca74746	-0.020419728
121	0xbda51d6d	-0.08062253
122	0x3d32dab3	0.0436656
123	0x3dacf8e6	0.08445911
124	0xbdabc403	-0.08386996
125	0xbe180744	-0.14846522
126	0x3c0f30f3	0.008739698
127	0x3ca3f746	0.02001537
128	0xbd8d4cfe	-0.06899451
129	0xbdb53a6b	-0.08849033
130	0xbe096835	-0.13418658
131	0xbdcc3ebe	-0.099729046
132	0x3b0d5c5c	0.0021569943
133	0xbdd69c09	-0.1047898
134	0x3e04f74f	0.12984966
135	0xbd8aba37	-0.06773799
136	0xbd9d3ebb	-0.076779805
137	0xbe0b8e3b	-0.13628475
138	0xbddf1e95	-0.10894505
139	0x3dafa715	0.0857679
140	0x3e1059b7	0.14096723
141	0x3d0bbad2	0.034113713
142	0xbe006aa2	-0.12540677
143	0xbdb49432	-0.088173285
144	0xbd976821	-0.07392908
145	0x3b9c7396	0.004774521
146	0x3e1a58c3	0.15072922
147	0x3e070b55	0.13187917
148	0x3d9591c1	0.07303191
149	0xbe07641d	-0.13221784
150	0xbe081b3d	-0.1329164
151	0x3e0f2612	0.13979366
152	0xbc39b731	-0.01133518
153	0xbd93fca3	-0.07225921
154	0x3dbd7cad	0.09252296
155	0xbe0546e5	-0.13015325
156	0xbdea7646	-0.1144834
157	0xbe0d2080	-0.13781929
158	0x3d3c3196	0.045945726
159	0xbe21e9f3	-0.15811901
160	0x3e24fd52	0.16112259
161	0x3db1273b	0.08650061
162	0x3d6d7370	0.057971418
163	0x3d8d20a5	0.06890992
164	0xbe05a8df	-0.130527
165	0x3def0006	0.11669926
166	0x3de6762e	0.1125301
167	0x3d70e5dc	0.05881296
168	0x3cbaa2e8	0.022782758
169	0xbdd2adfd	-0.10287092
170	0xbbf9e0d1	-0.007625677
171	0xbdcebd3b	-0.100946866
172	0x3e20b6f1	0.15694787
173	0x3df6aa7e	0.120442376
174	0xbe1417d3	-0.14462213
175	0xbd849bb6	-0.06475012
176	0xbdc84411	-0.09778608
177	0x3c3cf896	0.011533877
178	0x3d99224a	0.07477243
179	0xbdd06180	-0.10174847
180	0x3e191891	0.14950778
181	0xbe303535	-0.17207797
182	0xbd79aafc	-0.06095408
183	0x3deadeb5	0.11468259
184	0xbb8cb57c	-0.0042940956
185	0x3dc64818	0.096817195
186	0x3e08c349	0.13355745
187	0xbe2e5d36	-0.17027745
188	0xbdde493d	-0.10853813
189	0xbc5a40c4	-0.013321105
190	0x3ae976cc	0.0017811893
191	0x3df19ff0	0.11798084
192	0xbd69de9d	-0.057097066
193	0xba0ebd1d	-0.000544505
194	0x3d211190	0.03932339
195	0xbd129ebb	-0.03579591
196	0xbe1abbb9	-0.15110673
197	0x3db72640	0.089428425
198	0xbde57894	-0.11204639
199	0x3e251d74	0.16124517
200	0xbe20c730	-0.15700984
201	0x3c9b7e4e	0.018981125
202	0x3cdf30ec	0.027245007
203	0xbdd1e9a3	-0.10249641
204	0xbbb88db6	-0.0056321276
205	0x3c128449	0.008942672
206	0x3dbd396f	0.0923947
207	0x3da85fb8	0.08221382
208	0x3df9caa3	0.12196853
209	0xbc1ede9c	-0.009696629
210	0xbd3a47ac	-0.045478508
211	0xbd4cfe09	-0.050046954
212	0xbdb00a3a	-0.085957006
213	0xbd370b9d	-0.04468881
214	0x3e4c4d13	0.19951276
215	0x3e32af94	0.1744979
216	0xbdf1f125	-0.11813573
217	0xbde69931	-0.11259688
218	0xbdd218ed	-0.102586605
219	0xbd8c2b59	-0.068442054
220	0xbe1edf10	-0.15514779
221	0xbd2f7c0c	-0.04284291
222	0xbcedb3f1	-0.029016467
223	0xbe21eb25	-0.15812357
224	0xbd5dc80b	-0.054145854
225	0xbd3f17ee	-0.04665368
226	0x3daeb399	0.08530349
227	0xbe0dbcb7	-0.1384152
228	0xbdd486de	-0.103772864
229	0xbd330235	-0.043703277
230	0xbd87b75f	-0.06626772
231	0xbdf4a2af	-0.11945092
232	0xbdd13c8d	-0.10216627
233	0x3cc9f96f	0.024655072
234	0xbe265b3a	-0.16245738
235	0x3d04013b	0.032227736
236	0xbcda70f9	-0.026665198
237	0x3ddf0d5c	0.1089122
238	0xbdbfb359	-0.0936038
239	0x3c05b734	0.008161355
240	0x3e2ec741	0.17068197
241	0x3d5ca9e2	0.05387295
242	0xbdc416ef	-0.09574687
243	0xbd00f76c	-0.03148596
244	0x3e196972	0.1498163
245	0x3e0ea3d5	0.13929684
246	0x3d2f984b	0.042869847
247	0x3e487d46	0.19579038
248	0xbdb6e5c7	-0.08930545
249	0x3e2b91b9	0.16754808
250	0xbcee1c78	-0.02906631
251	0xbde5f80c	-0.11228952
252	0xbd3a546f	-0.04549068
253	0x3cdcfcad	0.026975954
254	0x3e322eaf	0.17400621
255	0x3e064402	0.1311188

blocks.0.fcn_layer.bias f4 [32]
0	0x3cb2fed1	0.021850022
1	0x3e0b4f97	0.1360458
2	0x3d0bb36b	0.034106653
3	0xbd077e84	-0.03307964
4	0x3d4555fc	0.048177704
5	0x3d9bf603	0.076152824
6	0xbdcc0430	-0.09961736
7	0x3dd8d2e6	0.10587101
8	0xbe043ff6	-0.12915024
9	0x3d55df9c	0.052215204
10	0xbca0dc7e	-0.019636389
11	0x3dd853a5	0.10562829
12	0xbd77ea41	-0.060526136
13	0xbdbf2165	-0.093325414
14	0x3d0bfe68	0.034178168
15	0xbe229420	-0.15876818
16	0x3d1d0b4e	0.03834086
17	0xbd15277f	-0.03641462
18	0xbe47d2c8	-0.19514
19	0xbe00400e	-0.12524435
20	0xbd86990d	-0.06572161
21	0x3d83edbf	0.06441831
22	0xbe151a04	-0.14560705
23	0xbda861be	-0.08221768
24	0x3de84fb5	0.11343328
25	0xbd717643	-0.058950674
26	0xbe316853	-0.17324953
27	0x3d5ad426	0.053424977
28	0xbb6f4232	-0.0036507961
29	0xbe09f1d8	-0.13471162
30	0x3dc30808	0.09523016
31	0xbe345d26	-0.17613658

blocks.0.layer_norm.weight f4 [32]
0	0x3f806d55	1.0033365
1	0x3faec844	1.3654866
2	0x3f9a8c71	1.2074109
3	0x3f83cf80	1.0297699
4	0x3f8938f3	1.0720505
5	0x3f828a8c	1.0198531
6	0x3f8a27d9	1.079341
7	0x3f83c364	1.0294003
8	0x3f827e87	1.0194863
9	0x3f8b40e0	1.0879173
10	0x3f8305fa	1.0236199
11	0x3f817ee8	1.0116854
12	0x3fa7a306	1.3096626
13	0x3f846aff	1.0345153
14	0x3f9c7846	1.2224205
15	0x3f81752c	1.0113883
16	0x3fa40ef0	1.2817059
17	0x3f829d46	1.0204246
18	0x3f7c1c21	0.9848042
19	0x3f851df4	1.0399766
20	0x3fa49614	1.28583
21	0x3f8017e5	1.0007292
22	0x3f9e3f1a	1.2363007
23	0x3fa5f9c0	1.2966843
24	0x3f808916	1.0041835
25	0x3f7d48aa	0.98939
26	0x3f804ef0	1.002409
27	0x3f846d26	1.034581
28	0x3f821207	1.0161752
29	0x3f87f9aa	1.0623066
30	0x3f83d80b	1.0300306
31	0x3fab31f7	1.3374623

blocks.0.layer_norm.bias f4 [32]
0	0x3b440547	0.0029910372
1	0x3e9b2eb0	0.30309057
2	0x3e731b6f	0.23740934
3	0x3c7da037	0.015480093
4	0x3c7ff9ce	0.015623523
5	0x3c817192	0.015801225
6	0x3d8892ce	0.06668626
7	0x3cd8d3c0	0.026468158
8	0xbc5abe14	-0.013350982
9	0x3d45735b	0.048205715
10	0x3c4f7e9b	0.012664462
11	0x3c5c89a2	0.013460549
12	0x3e8eba9a	0.2787674
13	0x3d03496b	0.03205244
14	0x3e7328a9	0.2374598
15	0x3c6a4f2d	0.014301104
16	0x3e86f9e4	0.26362526
17	0x3c0bf570	0.008542404
18	0xbcee9f3d	-0.029128665
19	0x3d132a4d	0.035929013
20	0x3e8c2fc9	0.27380207
21	0x3c2093a4	0.009800825
22	0x3e781919	0.24228324
23	0x3e8b38b4	0.271917
24	0x3b356afd	0.0027682178
25	0xbc688ff1	-0.014194475
26	0xb9dc9b5c	-0.00042077422
27	0x3ce0a1a8	0.027420834
28	0x3ce50d5c	0.027960472
29	0x3d52c7db	0.05146013
30	0x3cb51b90	0.02210787
31	0x3e93de04	0.28880322

last_layer.weight f4 [1, 32]
0	0xbd4013d3	-0.046893906
1	0xbea86f70	-0.3289752
2	0xbeb1f7ca	-0.3475936
3	0x3d8d5673	0.069012545
4	0x3d8445fd	0.06458662
5	0x3e40f6d4	0.18844157
6	0x3e777f77	0.24169718
7	0x3db5b8c9	0.088731356
8	0xbe150d30	-0.14555812
9	0x3e2e73e4	0.17036396
10	0x3dac57e1	0.08415199
11	0x3df3bbd7	0.11901062
12	0xbea55735	-0.32293096
13	0x3e3c0923	0.1836286
14	0xbebd10d1	-0.36926892
15	0x3dd4ded0	0.103940606
16	0xbeaa348b	-0.33243212
17	0x3db54140	0.08850336
18	0xbd9e86ca	-0.07740553
19	0x3dbb08d4	0.09132543
20	0xbe9940b4	-0.29932177
21	0xbb8b9903	-0.004260184
22	0xbeba5e3e	-0.36400026
23	0xbea6dded	-0.3259119
24	0x3e321050	0.17389035
25	0xbde8a31c	-0.11359236
26	0x3df6d715	0.120527424
27	0x3e219ccc	0.1578247
28	0x3d082a67	0.033243563
29	0x3e123001	0.14276125
30	0x3ccd63d2	0.025072012
31	0xbea94ac9	-0.3306487
